assets/isaacgymenvs/runs/Cartpole/nn/Cartpole.pth (torch, 26904 bytes, 24 tensors)

running_mean f8 [4]
0	0xbfadc49b70a3369d	-0.05814061880083197
1	0xbfa8f9e5d8f8a7ad	-0.04878156922889274
2	0x3f618221cd80eeca	0.0021372471055921315
3	0xbf75561c3c2334a6	-0.005209074299455418

running_var f8 [4]
0	0x3fd2200420a8112d	0.2832041090880633
1	0x400b73a13cea7740	3.431459880738572
2	0x3fa3c238c4d463b8	0.038591169383102863
3	0x400b97a82e9f6a23	3.4490512506865953

count f8 []
0	0x4159400040000000	6619137.0

running_mean f8 [1]
0	0x401b47eedd78852d	6.820247135621043

running_var f8 [1]
0	0x401c5fc2de719320	7.093516803438234

count f8 []
0	0x4139400100000000	1654785.0

a2c_network.actor_mlp.0.weight f4 [32, 4]
0	0xbdd95f11	-0.106138356
1	0x3c074468	0.008256055
2	0xbe90d9d7	-0.282912
3	0x3daf9ac6	0.085744426
4	0x3ed04a28	0.40681577
5	0xbea257d9	-0.31707647
6	0x3f11aac7	0.5690121
7	0x3e1ba35e	0.15199038
8	0x3e9675bb	0.29386696
9	0x3d8656b7	0.06559508
10	0x3ead320d	0.33827248
11	0xbe059372	-0.13044527
12	0x3e240fa5	0.16021593
13	0xbdc449d0	-0.09584391
14	0xbdd34852	-0.103165284
15	0x3e300995	0.17191155
16	0xbe3d12ef	-0.18464254
17	0xbd91d928	-0.071214974
18	0xbe815238	-0.2525804
19	0x3e191eb1	0.14953114
20	0xbea7379d	-0.32659617
21	0xbc35ad07	-0.011088616
22	0xbd94c83a	-0.07264753
23	0xbdc60b43	-0.09670117
24	0x3d56fb0c	0.05248551
25	0xbed670d8	-0.41882968
26	0x3ed7695d	0.42072573
27	0xbe984024	-0.29736435
28	0x3ede96cf	0.43474433
29	0x3d3cf981	0.046136383
30	0xbe58dca9	-0.21177925
31	0x3df0a55f	0.11750292
32	0x3d1287bd	0.03577398
33	0x3eaabddc	0.33347976
34	0x3d6adde7	0.05734053
35	0xbe9f068c	-0.31059682
36	0x3d4cbd68	0.04998532
37	0xbe6db7cf	-0.23214649
38	0x3ebe54ab	0.37173972
39	0x3ee2dd8f	0.4430966
40	0x3e4e4f14	0.20147353
41	0xbe67e62c	-0.22646397
42	0x3ee2c42d	0.44290295
43	0x3e0ad82a	0.13559023
44	0x3ecc5524	0.39908707
45	0x3d1f4659	0.038885448
46	0xbf1a9cbb	-0.603954
47	0xbd9eebe1	-0.07759834
48	0xbee77a97	-0.45210716
49	0x3e605b55	0.2190984
50	0x3ea21063	0.31653127
51	0xbbe89eb0	-0.007098995
52	0x3d529e92	0.051420756
53	0x3c0246e4	0.007951472
54	0x3ec7f83d	0.39056578
55	0xbe6a1de9	-0.22862972
56	0x3c91566e	0.017741408
57	0xbe528876	-0.20559868
58	0xbda3ea80	-0.08003712
59	0xbe01515f	-0.12628697
60	0xbd812213	-0.06305327
61	0xbdbaabd8	-0.09114808
62	0x3efe9369	0.4972184
63	0xbd977e1b	-0.073970996
64	0xbee41e7e	-0.44554514
65	0xbea604b6	-0.3242547
66	0x3f349f43	0.70555514
67	0x3e94a9a5	0.29035679
68	0x3f0c3fc7	0.54784817
69	0x3cdbd208	0.02683355
70	0xbf4ba9e3	-0.795561
71	0xbe72321c	-0.23651928
72	0xbecfb6c4	-0.40569127
73	0x3d0470ff	0.032334324
74	0x3eb8d82f	0.36102435
75	0x3e7f7a00	0.24948883
76	0xbebe18ab	-0.37128195
77	0xbe8a34b3	-0.2699333
78	0x3f17a62f	0.5923795
79	0x3e8dd296	0.27699727
80	0x3ead5e6c	0.338611
81	0xbd4b9441	-0.049701933
82	0x3e44c655	0.19216283
83	0xbe4db2c8	-0.20087731
84	0xbdb32ba1	-0.08748556
85	0x3e8e5441	0.27798656
86	0xbdd4a1c3	-0.10382416
87	0xbe93ef77	-0.28893635
88	0x3ee34c52	0.44394165
89	0x3ef8bbf9	0.48580912
90	0xbf0fb235	-0.561313
91	0xbecda7b6	-0.40167016
92	0x3f0da5d0	0.55331135
93	0x3e9c5e91	0.30540898
94	0xbf0a5006	-0.54028356
95	0xbeaad915	-0.33368745
96	0xbe478eef	-0.19488119
97	0x3e9e6e91	0.3094373
98	0x3aa92539	0.001290477
99	0xbea3f97a	-0.32026273
100	0x3dae0579	0.084971376
101	0xbd245e86	-0.040129207
102	0xbee9102c	-0.4552015
103	0xbe0e67a6	-0.13906726
104	0xbf1e1931	-0.6175719
105	0xbebf3caa	-0.3735097
106	0x3f13f5f1	0.5779715
107	0x3e74f715	0.2392238
108	0x3f1536a3	0.58286494
109	0x3e0947bc	0.1340627
110	0xbf2407a6	-0.6407417
111	0xbe0b611c	-0.13611263
112	0x3b6e0625	0.003631958
113	0xbe9744e9	-0.29544762
114	0xbea0bda2	-0.31394678
115	0xbe55d911	-0.20883586
116	0x3edfaea3	0.43687925
117	0x3e43ebd8	0.19132936
118	0xbec4da49	-0.38447788
119	0xbe86384e	-0.26214832
120	0xbed1db65	-0.40987697
121	0xbd8eaf12	-0.06966986
122	0xbe8e161a	-0.27751237
123	0xbe8df24b	-0.27723917
124	0x3ec2ecf2	0.380714
125	0xbe0e40ea	-0.1389195
126	0x3f0d9a07	0.5531315
127	0x3df7c83c	0.120987386

a2c_network.actor_mlp.0.bias f4 [32]
0	0xbd930ae2	-0.0717981
1	0xbe01e475	-0.12684806
2	0xbe026a58	-0.1273588
3	0xbda931b7	-0.082614355
4	0xbd8e4828	-0.069473565
5	0xbe17bd78	-0.1481837
6	0x3d961463	0.07328107
7	0xbdae5bd8	-0.085136116
8	0xbdaf909f	-0.08572506
9	0xbe0e9726	-0.13924846
10	0xbe162f79	-0.14666547
11	0xbde60940	-0.11232233
12	0xbdf7dda3	-0.12102821
13	0xbd40fe29	-0.047117386
14	0x3dbb3404	0.091407806
15	0x3d649391	0.055804793
16	0xbe576b6a	-0.21037069
17	0xbe0cd863	-0.1375442
18	0xbe27ce7a	-0.16387358
19	0x3da04c45	0.07827047
20	0x3dc21320	0.09476304
21	0x3d30e387	0.043185737
22	0xbe06cd00	-0.13164139
23	0xbdad07e4	-0.08448771
24	0x3cb524b3	0.022112226
25	0xbd8d4efd	-0.068998314
26	0x3e379fc3	0.17932038
27	0xbca42fa6	-0.020042252
28	0xbdd1077c	-0.10206506
29	0x3dd44de6	0.103664204
30	0xbe0a7c70	-0.13524032
31	0xbdfaa262	-0.12238003

a2c_network.actor_mlp.2.weight f4 [32, 32]
0	0x3d3f8be1	0.04676426
1	0x3cc0289f	0.02345687
2	0x3ba7236c	0.005100658
3	0x3e2d5343	0.16926293
4	0x3d250fd9	0.040298317
5	0xbd5a6e07	-0.053327587
6	0xbe0b120a	-0.135811
7	0x3b9514e8	0.0045496114
8	0x3e59aa30	0.21256328
9	0xbd93706e	-0.07199179
10	0xbd8ba092	-0.06817736
11	0x3d3cd0f5	0.046097714
12	0xbe3d11be	-0.184638
13	0x3b0391ec	0.002007599
14	0x3dab2866	0.08357315
15	0xbe6f08f5	-0.2334326
16	0xbda6238b	-0.08112248
17	0x3e2769d7	0.16348968
18	0xbd732055	-0.059357006
19	0xbe0cae1a	-0.1373829
20	0x3ce6ad33	0.02815876
21	0x3de2d972	0.11076631
22	0x3e4e3c9c	0.20140308
23	0xbd15ba5b	-0.036554676
24	0x3d069387	0.032855537
25	0x3da188f8	0.07887453
26	0xbeab302e	-0.33435196
27	0x3803deb2	3.1440235e-05
28	0x3e152c03	0.1456757
29	0x3e597b0d	0.21238346
30	0x37907ce0	1.7224287e-05
31	0x3cde16b4	0.027110435
32	0xbdc388e3	-0.095475934
33	0x3d125f0e	0.035735182
34	0x3d2f5b7e	0.042811863
35	0x3d2dd556	0.04243978
36	0xbe4fe205	-0.20301063
37	0xbe271d46	-0.1631976
38	0x3e656bf8	0.22404468
39	0x3d47f786	0.04882004
40	0xbe4321c5	-0.19055851
41	0x3c1d8a3b	0.009615476
42	0xbd6da92c	-0.058022663
43	0xbec44d90	-0.38340425
44	0xbd8353bb	-0.06412455
45	0x3d0f4671	0.034979288
46	0x3e09d37f	0.13459586
47	0x3dd42595	0.10358731
48	0xbe99777a	-0.29973966
49	0xbe6edf60	-0.23327398
50	0x3cba0b74	0.02271054
51	0x3e65f0cf	0.22455142
52	0x3d3d6620	0.046239972
53	0xbdec27b9	-0.11531014
54	0xbe9556f0	-0.2916789
55	0xbe12b773	-0.14327793
56	0xbe814174	-0.2524525
57	0x3c5372f8	0.012905829
58	0xbde1d93a	-0.11027761
59	0xbdc6b15c	-0.09701797
60	0xbe5775f6	-0.21041092
61	0x3d1a32ee	0.037646227
62	0x3d8d86b6	0.0691046
63	0x3de66c7d	0.11251161
64	0xbe0f1950	-0.139745
65	0xbe708f3d	-0.23492141
66	0xbe3b7efd	-0.18310161
67	0x3e0985da	0.13429967
68	0x3daad53d	0.08341453
69	0x3e08dbeb	0.13365142
70	0x3e23eceb	0.16008346
71	0x3d1f7769	0.038932238
72	0xbdeb37c0	-0.11485243
73	0xbe381677	-0.1797732
74	0xbe358a00	-0.17728424
75	0xbe407b07	-0.18796931
76	0x3d0786b7	0.03308746
77	0xbd4240e8	-0.04742518
78	0x3d681710	0.05666262
79	0xbd715e97	-0.0589281
80	0xbe6e35a6	-0.23262653
81	0xbd610ac6	-0.054941915
82	0xbe1e56c7	-0.1546279
83	0xbd3144ee	-0.043278627
84	0x3cc05ffa	0.023483265
85	0x3cdafc93	0.026731765
86	0xbe7edef8	-0.24889743
87	0xbd29531d	-0.04133903
88	0xbdd11e07	-0.102108054
89	0xbd87ebfa	-0.06636806
90	0xbe59a59b	-0.2125458
91	0xbd77ffac	-0.060546562
92	0x3e1e759b	0.1547455
93	0xbd9f8291	-0.077885754
94	0x3ded1de5	0.115779676
95	0x3c8249c6	0.015904319
96	0x3db5369e	0.08848308
97	0xbdae4efc	-0.08511159
98	0x3e6b3a9c	0.22971576
99	0xbd09edf8	-0.03367421
100	0x3d2a7a74	0.041620687
101	0x3e48fad0	0.19626927
102	0xbd95255b	-0.072825156
103	0x3c939db0	0.018019527
104	0x3dff6fa9	0.12472469
105	0xbe3d59ba	-0.18491259
106	0x3e027940	0.12741566
107	0xbd4c4a34	-0.049875453
108	0x3d72ea41	0.059305433
109	0x3dc35f9e	0.09539722
110	0x3dce7489	0.10080821
111	0xbdde10ac	-0.10843024
112	0xbe883800	-0.26605225
113	0x3e010454	0.12599307
114	0x3b5afc1a	0.0033414424
115	0xbe972e94	-0.29527724
116	0xbdb921fc	-0.09039685
117	0xbdcf1a58	-0.101124465
118	0x3e1b8194	0.15186149
119	0xbd6969c9	-0.05698565
120	0x3bde583c	0.0067854207
121	0x3ae0e148	0.0017156983
122	0xbf05b4a9	-0.5222879
123	0x3e473680	0.19454384
124	0x3e32af5c	0.17449707
125	0x3cd217e8	0.025646165
126	0xbcba37e0	-0.022731721
127	0xbbd66683	-0.006542982
128	0xbddccacf	-0.1078087
129	0xbea4f964	-0.3222152
130	0x3c3168ad	0.010828179
131	0xbdc0403d	-0.093872525
132	0xbdb6eadc	-0.089315146
133	0x3a09844e	0.000524585
134	0x3d28ed9e	0.041242234
135	0xbe000e9e	-0.12505576
136	0xbce1af02	-0.02754927
137	0xbe1bcf2a	-0.15215746
138	0xbe218b45	-0.15775783
139	0xbe1b80b5	-0.15185817
140	0xbdfe097d	-0.124041535
141	0x3e85ca15	0.2613074
142	0xbb080403	-0.0020754344
143	0x3e157c78	0.14598262
144	0xbdba339b	-0.09091874
145	0x3b219e26	0.0024660914
146	0x3e1b9eb3	0.15197258
147	0x3d873bd1	0.06603206
148	0xbd47d836	-0.04879018
149	0xbd4c1565	-0.04982509
150	0x3daf1655	0.08549181
151	0x3e40ee45	0.18840893
152	0x3d87eaa5	0.06636552
153	0x3db22a7a	0.08699508
154	0xbd714d2f	-0.0589115
155	0x3ca01c6e	0.019544806
156	0xbe2788be	-0.16360757
157	0xbc7fcbc9	-0.015612551
158	0x3e104786	0.14089784
159	0xbd15c8bc	-0.03656839
160	0xbe097ada	-0.1342577
161	0xbdd25afb	-0.102712594
162	0xbda71fe3	-0.08160379
163	0xbe52adba	-0.20574084
164	0xbdd0cb06	-0.10194974
165	0x3d027a1d	0.031854738
166	0x3dbf42ef	0.093389384
167	0x3b993195	0.0046751
168	0xbdefcb31	-0.117086776
169	0xbe168088	-0.14697468
170	0x3de02c50	0.10945952
171	0xbd951fb9	-0.07281441
172	0xbd6dd36d	-0.05806296
173	0x3d394985	0.04523613
174	0xbdcae75a	-0.09907408
175	0xbd572b21	-0.052531365
176	0xbd8a6b39	-0.06758732
177	0xbca7f71e	-0.020503577
178	0xbe196551	-0.14980055
179	0xbe160f5e	-0.146543
180	0xbe62e98e	-0.22159407
181	0xbd50ce34	-0.0509779
182	0x3e78892f	0.24271081
183	0xbe3e3047	-0.18573104
184	0xbc3db18c	-0.011577975
185	0x3dd68fb6	0.104766294
186	0xbda5d32a	-0.08096917
187	0x3de23160	0.11044574
188	0x3e33cabb	0.17557804
189	0x3e0ff6c9	0.14058985
190	0xbdebe3be	-0.11518048
191	0x3d86e167	0.06585961
192	0x3e5e6a86	0.21720323
193	0xbd95b17d	-0.07309244
194	0xbe396773	-0.18105869
195	0x3e23831c	0.15967983
196	0x3ca734cc	0.020410918
197	0xbe151115	-0.14557298
198	0xbe12c53e	-0.14333054
199	0x3cca4030	0.02468881
200	0x3c385671	0.011251078
201	0x3d08f5a9	0.033437405
202	0xbcea638e	-0.028611924
203	0xbdabe8b4	-0.08393994
204	0xbe2321ee	-0.15930912
205	0xbdb9c3ea	-0.09070571
206	0x3e53f147	0.20697509
207	0x3c9c17e0	0.019054353
208	0xbe942092	-0.289311
209	0x3d830a9a	0.063985065
210	0xbde9acdb	-0.11409923
211	0x3cca0d7d	0.024664635
212	0xbc4b2942	-0.012399973
213	0x3e2784c3	0.16359238
214	0x3d582dbc	0.05277799
215	0xbdb9ef6a	-0.09078868
216	0x3e2785b1	0.16359593
217	0xbd52c129	-0.051453743
218	0x3e277f6c	0.16357201
219	0x3e79c545	0.24391659
220	0x3d99bcac	0.075066894
221	0x3e61f4e6	0.22066078
222	0xbe1b37de	-0.1515803
223	0xbdfa63fd	-0.122261025
224	0x3d2b04fe	0.041752808
225	0xbdd12191	-0.102114804
226	0xbdd219c1	-0.102588184
227	0xbdbb409b	-0.09143182
228	0x3d8d7dcc	0.069087595
229	0x3cbc3220	0.02297312
230	0x3e0df4ee	0.13862965
231	0xbe1b88a7	-0.15188847
232	0xbe872739	-0.26397112
233	0x3bc83eb4	0.0061109904
234	0xbbe5bc86	-0.007010999
235	0xbe63c272	-0.22242144
236	0xbd5dd886	-0.05416157
237	0x3e2b3ef7	0.16723238
238	0x3d813f3d	0.0631089
239	0x3dc24a08	0.094867766
240	0xbe63ebb6	-0.22257885
241	0xbe60daf4	-0.21958524
242	0xbe252a45	-0.16129406
243	0xbe23d832	-0.1600044
244	0xbb77d67a	-0.0037817047
245	0xbcf4e8ab	-0.029896101
246	0xbec3013e	-0.38086885
247	0xbdf18816	-0.117935345
248	0x3d8c50e2	0.06851365
249	0x3c402a57	0.011728845
250	0xbc6a1131	-0.014286325
251	0xbde5e438	-0.1122517
252	0xbd8698c7	-0.06572109
253	0xbbd74516	-0.006569515
254	0xbe128a28	-0.14310515
255	0xbe2ec866	-0.17068633

a2c_network.actor_mlp.2.bias f4 [32]
0	0xbe2ba7ca	-0.16763225
1	0x3e02f4d4	0.12788707
2	0x3e1a95f2	0.15096262
3	0xbe4b312c	-0.19842976
4	0x3d96cbb1	0.0736307
5	0xbdfe8b81	-0.12428952
6	0x3e4b14ae	0.19832107
7	0x3e23bc1e	0.1598973
8	0x3df5499e	0.11976932
9	0xbe5c3e2e	-0.21508095
10	0x3e11d902	0.14242938
11	0xbc41b20b	-0.011822234
12	0x3de870c3	0.113496326
13	0x3d6c74ee	0.0577287
14	0x3e214b2c	0.15751332
15	0xbda13c73	-0.07872858
16	0xbe17d2d3	-0.14826517
17	0x3dab11cc	0.08353004
18	0xbd1caee6	-0.038252734
19	0x3e2bbdc5	0.1677161
20	0xbe448f3e	-0.19195268
21	0x3dba453a	0.09095235
22	0x3d8f5650	0.06998885
23	0xbe0ea934	-0.13931733
24	0x3ddb78bc	0.10716388
25	0x3b856eb7	0.004072036
26	0xbe1ca4e5	-0.15297277
27	0xbd88b57b	-0.0667524
28	0xbe5fbefe	-0.21850201
29	0xbce4f6ad	-0.027949655
30	0xbe8b2c70	-0.2718234
31	0xbe3e1df6	-0.18566117

a2c_network.value.weight f4 [1, 32]
0	0xbd7aa41c	-0.061191663
1	0x3e037c64	0.1284042
2	0x3ddb5e8c	0.10711393
3	0xbde381ad	-0.11108718
4	0xbd3ec386	-0.046573184
5	0xbcca0635	-0.024661163
6	0x3e69b05c	0.22821182
7	0x3e4766bb	0.19472782
8	0x3d4857e4	0.048911944
9	0xbe3f2b12	-0.18668774
10	0x3e0cbe7d	0.1374454
11	0x3a9577f7	0.001140355
12	0x3daf3bc3	0.085563205
13	0x3d98d84d	0.07463131
14	0x3dab832e	0.0837463
15	0x3d20b891	0.039238516
16	0xbd470f87	-0.048598792
17	0x3d06c5b2	0.03290338
18	0xbd007f7d	-0.031371582
19	0x3e5007c3	0.20315461
20	0xbde204dd	-0.11036084
21	0x3d21e720	0.03952706
22	0xbc3eefad	-0.011653823
23	0xbd621a94	-0.055201128
24	0x3e068986	0.13138399
25	0xbc9f3f0a	-0.019439239
26	0xbd64d391	-0.055865828
27	0x3d69afd4	0.05705245
28	0xbe033c70	-0.12816024
29	0xbb99949a	-0.004686904
30	0x3c3d4bbf	0.011553704
31	0xbde1234b	-0.1099306

a2c_network.mu.weight f4 [1, 32]
0	0xbb4287a9	-0.002968291
1	0xbe0a0748	-0.1347934
2	0x3c1602f6	0.009155979
3	0x3aca5f81	0.0015439839
4	0x3e1c5160	0.15265417
5	0x3ca70b59	0.020391153
6	0xbd37917d	-0.044816483
7	0xbe28719a	-0.16449586
8	0x3c6709ea	0.014101485
9	0xbdb541d1	-0.08850444
10	0xbe56167d	-0.20907016
11	0x3e304978	0.17215526
12	0xbdd3224e	-0.103092775
13	0xbea0fa43	-0.31440935
14	0x3ea27603	0.3173066
15	0xbd8efc9e	-0.06981777
16	0x3cecafe2	0.028892461
17	0x3c0dd1e4	0.008655999
18	0x3bad11cc	0.0052816626
19	0xbcc13ad0	-0.023587614
20	0xbb79ff94	-0.0038146721
21	0x3a223c9e	0.0006188842
22	0x3d62e54a	0.05539445
23	0x3de1551f	0.11002564
24	0x3da33ad1	0.07970203
25	0x3b9297cc	0.004473662
26	0x3d9dddca	0.077083185
27	0xbe839556	-0.25699872
28	0xbd1c9729	-0.038230095
29	0xbbbbef72	-0.005735331
30	0xbe6628aa	-0.2247645
31	0xbe703f34	-0.2346161

exp_avg f4 [32, 4]
0	0xb8b15e7d	-8.4576175e-05
1	0x39a746ed	0.00031905566
2	0x385e30de	5.2974436e-05
3	0x399c1e44	0.00029777188
4	0xb9c89d96	-0.00038264383
5	0xb9ba1d51	-0.00035498527
6	0xb94305d8	-0.00018598826
7	0xba27b527	-0.0006397538
8	0xb9c12614	-0.000368402
9	0x35061bd8	4.995941e-07
10	0xb9408d5e	-0.0001836321
11	0xb92e1d25	-0.0001660479
12	0xb77d5683	-1.5100118e-05
13	0x396d4c70	0.00022630556
14	0x39352d6f	0.0001727843
15	0x38cabcdb	9.667288e-05
16	0xb9023f46	-0.00012421337
17	0x382e0439	4.1488765e-05
18	0xb8710780	-5.7465862e-05
19	0x37c3ab94	2.3325709e-05
20	0xb99f5942	-0.00030393346
21	0xb94cd5ce	-0.00019534605
22	0xb9c2991d	-0.00037116642
23	0xb92c5191	-0.00016433584
24	0x38e91984	0.000111150584
25	0xb968cb82	-0.00022201057
26	0x3937e0c8	0.00017535978
27	0xb9afd70d	-0.00033538826
28	0xb6a1ce9f	-4.8222278e-06
29	0x37e8bea5	2.7745331e-05
30	0x369c9712	4.666749e-06
31	0x37ff6019	3.0443118e-05
32	0xb9b0c2f1	-0.0003371458
33	0xb98eea8b	-0.000272591
34	0xb9dece83	-0.00042497003
35	0xb930a47e	-0.00016845946
36	0xb9bbac66	-0.00035795866
37	0x3a9bf1db	0.001189764
38	0x39a59910	0.00031585293
39	0x3a3e67de	0.0007263402
40	0xb9ff52c7	-0.00048699064
41	0x39dd2c51	0.00042185423
42	0x38fba735	0.000119997574
43	0xb8edf82a	-0.00011347265
44	0xb82963c0	-4.038564e-05
45	0xb9fd3205	-0.00048293188
46	0xb9f4c590	-0.00046686502
47	0xb92526b9	-0.00015750052
48	0xb9a03e42	-0.00030563964
49	0x38761f46	5.8680096e-05
50	0xb90ff2d9	-0.0001372801
51	0xb8c7f0b1	-9.533892e-05
52	0xb93818ab	-0.00017556797
53	0xb8b17619	-8.462015e-05
54	0xb88a9dd4	-6.6097506e-05
55	0xb95ec435	-0.00021244663
56	0x399a68a2	0.00029451126
57	0xb83ef4c0	-4.552747e-05
58	0x3891d09c	6.952995e-05
59	0x3905fb63	0.00012777517
60	0x3796076a	1.7884846e-05
61	0xb99d68b5	-0.00030023386
62	0xb8a0aebf	-7.6619435e-05
63	0xb993dfef	-0.00028204868
64	0xba8b09c4	-0.0010607769
65	0xba0f0859	-0.0005456261
66	0xba41f311	-0.00073985854
67	0xba81786a	-0.0009877805
68	0x39e7a469	0.00044182249
69	0x39b05bc2	0.000336377
70	0xba01486d	-0.0004931752
71	0x3a99c5a4	0.0011731875
72	0xb9fd20f8	-0.00048280484
73	0x3a8f5da4	0.0010937941
74	0x3863437c	5.4183867e-05
75	0x3a456b4b	0.00075309415
76	0xb8a22e99	-7.7334415e-05
77	0xb8e5e4a8	-0.000109621615
78	0xb5f62c39	-1.8341299e-06
79	0xb9878eb3	-0.00025855526
80	0x39b1cd9f	0.0003391327
81	0xb9a8f53c	-0.0003222617
82	0x391eb41c	0.0001513515
83	0xb98ce1bc	-0.00026871066
84	0x38dc867f	0.00010515469
85	0xb9eae0e5	-0.00044799517
86	0xb98af278	-0.00026502064
87	0xb91fcc02	-0.0001523942
88	0xb9282e0f	-0.00016038887
89	0xbadbabd8	-0.0016759587
90	0xba957438	-0.0011402434
91	0xba8501ef	-0.0010147671
92	0x39b62cb6	0.00034747057
93	0xba316175	-0.00067665364
94	0xba231303	-0.00062207895
95	0x38d0e296	9.960418e-05
96	0xb8f5a1d7	-0.000117126554
97	0xba3da946	-0.00072350015
98	0xba05b89d	-0.0005101057
99	0xb9efe5ac	-0.0004575675
100	0x388007a8	6.104942e-05
101	0xb9730f1a	-0.00023179912
102	0xb9802fa5	-0.0002444956
103	0xb63594a5	-2.7057624e-06
104	0xb9815a54	-0.00024672097
105	0xb97f2190	-0.00024331198
106	0x36ab3831	5.1027387e-06
107	0xba1b16cc	-0.0005916178
108	0x39fe3cd6	0.00048491982
109	0xba22f47d	-0.0006216241
110	0xb9243584	-0.00015660195
111	0xb8e67a72	-0.00010990062
112	0xb6e29fed	-6.7539427e-06
113	0x395d8ed9	0.00021129417
114	0xb6dc89f0	-6.572569e-06
115	0x39a17aa6	0.00030799693
116	0x39eef274	0.0004557554
117	0xba5ec2b4	-0.0008497641
118	0xb94b62e0	-0.00019396422
119	0xb9d35ff7	-0.00040316556
120	0xb89cd34f	-7.478019e-05
121	0x3a4797ac	0.00076138484
122	0xb9df56a0	-0.00042598415
123	0x3aae7ccd	0.001331234
124	0xb971064e	-0.000229859
125	0xb8567906	-5.1134288e-05
126	0xb8f44990	-0.00011648529
127	0xb925b2fc	-0.00015802303

exp_avg_sq f4 [32, 4]
0	0x37e097f3	2.6773638e-05
1	0x379304dc	1.7526028e-05
2	0x37606ff1	1.3377504e-05
3	0x379419c0	1.7654966e-05
4	0x39282b1d	0.0001603779
5	0x395952ce	0.0002072558
6	0x38968cda	7.178793e-05
7	0x392660f2	0.00015867109
8	0x38a09252	7.656649e-05
9	0x38c3ce33	9.336732e-05
10	0x37d7254e	2.5647369e-05
11	0x38930bfc	7.0117385e-05
12	0x377c7dab	1.504963e-05
13	0x3810c4ea	3.4515666e-05
14	0x365fcadb	3.3347667e-06
15	0x382c4a15	4.107699e-05
16	0x37b76e58	2.1866683e-05
17	0x375fef1e	1.334751e-05
18	0x3714d8c4	8.871957e-06
19	0x3759eab0	1.298885e-05
20	0x38e12473	0.00010735625
21	0x38ad4a71	8.2631486e-05
22	0x3824b3e4	3.9268183e-05
23	0x38964d56	7.166962e-05
24	0x3899ac75	7.327731e-05
25	0x3824e847	3.9316972e-05
26	0x37ae0e38	2.0749038e-05
27	0x38114087	3.463079e-05
28	0x385784cd	5.1383675e-05
29	0x385dbf0e	5.286844e-05
30	0x37826596	1.5544512e-05
31	0x3816f450	3.599032e-05
32	0x391a6d3a	0.00014727275
33	0x392be673	0.0001639368
34	0x380de107	3.3826593e-05
35	0x3914fdc1	0.0001420891
36	0x39013fca	0.00012326162
37	0x399ac6c4	0.0002952126
38	0x3858611e	5.158886e-05
39	0x3996c3f8	0.00028756238
40	0x38c15e6a	9.220543e-05
41	0x3957bc9d	0.00020574262
42	0x380e36b0	3.390637e-05
43	0x3958482d	0.00020626253
44	0x394c9d1c	0.00019513484
45	0x39613170	0.00021476089
46	0x386a7b56	5.5904813e-05
47	0x3959134e	0.00020701924
48	0x38237dcf	3.8979397e-05
49	0x38581724	5.1519964e-05
50	0x3759a71d	1.2973117e-05
51	0x383d00f0	4.5061985e-05
52	0x37bfde3a	2.2872457e-05
53	0x378bf699	1.6684922e-05
54	0x36dcfdd4	6.5860604e-06
55	0x3774e259	1.4596234e-05
56	0x38673ed0	5.513319e-05
57	0x3837771e	4.3741537e-05
58	0x37900665	1.7169115e-05
59	0x3818bf6f	3.641791e-05
60	0x38470d95	4.7457946e-05
61	0x37990481	1.8241119e-05
62	0x370bb0a0	8.326169e-06
63	0x379f1146	1.896232e-05
64	0x39e498fe	0.00043601537
65	0x39e69763	0.0004398181
66	0x3929b7ea	0.0001618561
67	0x39ca10a8	0.00038540852
68	0x390f0673	0.00013639945
69	0x39b48f65	0.00034439113
70	0x383f53a6	4.5615852e-05
71	0x39cf870b	0.00039582732
72	0x38ae8747	8.322164e-05
73	0x392eb6dc	0.00016662054
74	0x3820e6fc	3.8362094e-05
75	0x392135f3	0.00015374254
76	0x369dc620	4.7020294e-06
77	0x378bc658	1.6662452e-05
78	0x353cdc16	7.0355725e-07
79	0x37ae7648	2.0797495e-05
80	0x38bd23f8	9.018922e-05
81	0x3856337e	5.106953e-05
82	0x37a846fe	2.0060219e-05
83	0x383c803e	4.4942128e-05
84	0x381e6ef2	3.777346e-05
85	0x3909fc74	0.00013159384
86	0x36c62c40	5.906011e-06
87	0x39263429	0.00015850425
88	0x39af66df	0.00033455246
89	0x3a376ab1	0.0006996794
90	0x38a3ed6e	7.8166704e-05
91	0x3a439bbe	0.0007461867
92	0x38a302df	7.7729805e-05
93	0x39d72a25	0.00041039396
94	0x3784cf79	1.5832238e-05
95	0x3a0055a8	0.0004895576
96	0x392232ba	0.00015468421
97	0x39831a99	0.00025006084
98	0x3816d048	3.5956764e-05
99	0x398c6cfc	0.0002678408
100	0x39078260	0.00012923172
101	0x38cb74a4	9.70152e-05
102	0x3829befd	4.047061e-05
103	0x38b89891	8.8022214e-05
104	0x380f2110	3.412465e-05
105	0x388b4867	6.6415225e-05
106	0x370d410a	8.419398e-06
107	0x38a47f96	7.843894e-05
108	0x37e4f97e	2.7295897e-05
109	0x394b9535	0.00019415173
110	0x36d5b30f	6.36874e-06
111	0x39748d4c	0.0002332229
112	0x388fe639	6.861654e-05
113	0x37fcbf89	3.0129931e-05
114	0x3812baac	3.4982964e-05
115	0x37d1a6b9	2.4992378e-05
116	0x37d6fe90	2.5629328e-05
117	0x3925acc2	0.00015799984
118	0x36cb6a20	6.062226e-06
119	0x39442b7f	0.0001870822
120	0x3921f5ef	0.00015445774
121	0x394ba40f	0.00019420705
122	0x3870b645	5.739021e-05
123	0x39603d68	0.0002138518
124	0x38ce8e22	9.84932e-05
125	0x391c3ead	0.00014900668
126	0x3855bfee	5.0961906e-05
127	0x38e037a5	0.00010691517

exp_avg f4 [32]
0	0xb8f04298	-0.00011456496
1	0x3b0779fa	0.002067207
2	0x3ad00bae	0.0015872621
3	0x391e86da	0.0001511829
4	0x391879ce	0.00014541225
5	0x3a9db010	0.001203062
6	0xba08a891	-0.00052131066
7	0x3719e5be	9.173002e-06
8	0x3a37b0d8	0.0007007248
9	0x3b13026a	0.0022431859
10	0x3b20c3d1	0.0024530778
11	0xb8b178ee	-8.4625426e-05
12	0x3ac16fbd	0.0014758032
13	0x3a57f65e	0.00082383107
14	0xba9c3387	-0.0011917212
15	0x3880196a	6.108249e-05
16	0x3baf27a2	0.005345301
17	0xbae4ce57	-0.0017456514
18	0x3b38e771	0.0028214122
19	0x3a62d8c6	0.00086535176
20	0xba5bbdac	-0.00083824503
21	0xba662a9f	-0.0008780155
22	0xb98c2cf7	-0.00026736382
23	0xbafc0008	-0.0019226084
24	0x3712b28c	8.743849e-06
25	0xb9abca09	-0.0003276619
26	0x3af02121	0.001832042
27	0xbb2ad78f	-0.0026068424
28	0xba180fe1	-0.0005800706
29	0xbb0ed5eb	-0.0021794986
30	0xba831985	-0.0010002112
31	0x3a81df35	0.000990844

exp_avg_sq f4 [32]
0	0x38a6ac8f	7.9476384e-05
1	0x3a27e9cd	0.00064053835
2	0x39a74364	0.00031902932
3	0x393c57ae	0.0001796174
4	0x3881da50	6.191863e-05
5	0x39b1a97f	0.00033886355
6	0x39415d1c	0.000184406
7	0x391824c6	0.00014509549
8	0x3a126b73	0.0005585469
9	0x3aaae3c5	0.0013037851
10	0x3a80c06e	0.0009822974
11	0x3a8db5e3	0.0010811653
12	0x39317dcc	0.00016926898
13	0x38a370a4	7.7934266e-05
14	0x395a575e	0.00020822647
15	0x38b9750c	8.843289e-05
16	0x3ae5c20d	0.0017529145
17	0x3b17e620	0.0023177937
18	0x3a434073	0.00074482633
19	0x38b4c1e0	8.619181e-05
20	0x395c9eef	0.00021040042
21	0x3a3c96bc	0.0007194092
22	0x3b8026dd	0.003910883
23	0x3b29487e	0.0025830562
24	0x3aa00d28	0.0012210952
25	0x39ff3d4e	0.00048683066
26	0x39d83fbd	0.0004124622
27	0x3a9d4c58	0.0012000902
28	0x390c4c56	0.00013379878
29	0x3a82dc0f	0.0009983795
30	0x3a8f8314	0.0010949099
31	0x39b6761f	0.00034801752

exp_avg f4 [32, 32]
0	0xb74343ac	-1.1638662e-05
1	0xb9264d90	-0.00015859888
2	0xb900e542	-0.00012292436
3	0xb88c7b14	-6.698645e-05
4	0xb680a656	-3.8340613e-06
5	0xb7f562a4	-2.9252209e-05
6	0x3876d9d0	5.8853824e-05
7	0xb8c4dfb3	-9.3876755e-05
8	0xb845b9ad	-4.7141384e-05
9	0xb91518dd	-0.0001421901
10	0xb910bb27	-0.0001380263
11	0xb8359ee3	-4.3301738e-05
12	0xb8744a5a	-5.824338e-05
13	0xb838201c	-4.3898923e-05
14	0x38b6906c	8.705337e-05
15	0x36c8c31e	5.983179e-06
16	0xb906e3cb	-0.00012864095
17	0xb823b7dd	-3.9033464e-05
18	0xb8d55d2b	-0.00010173985
19	0x37b828b9	2.1953472e-05
20	0x379f85c2	1.9016563e-05
21	0x38737c01	5.8051202e-05
22	0xb8805235	-6.118828e-05
23	0xb8405fab	-4.5865465e-05
24	0x38519358	4.9966708e-05
25	0x376005fa	1.3352832e-05
26	0x390436fe	0.00012608987
27	0xb76320d0	-1.3537894e-05
28	0x376a01ac	1.3947876e-05
29	0x387e5529	6.063763e-05
30	0x37bb63d9	2.2338632e-05
31	0xb92b81f0	-0.00016356236
32	0xb8bf6fe4	-9.128431e-05
33	0x3931fcb2	0.00016974172
34	0x3932efc1	0.00017064718
35	0x366e0d46	3.547249e-06
36	0xb8fd6cc5	-0.0001208424
37	0xb898d016	-7.286684e-05
38	0x394233b0	0.00018520537
39	0x381080cb	3.4452223e-05
40	0x38b93f00	8.833222e-05
41	0x394cdad0	0.0001953647
42	0x39132d2d	0.00014035842
43	0xb92e16d8	-0.00016602443
44	0x391f8151	0.00015211596
45	0x39306937	0.00016823864
46	0xb8b61998	-8.6832035e-05
47	0x390dea86	0.00013534175
48	0x38da06e6	0.00010396335
49	0xb93be27c	-0.00017918082
50	0x394bc74c	0.00019433832
51	0x39045320	0.00012619467
52	0x38c4b2b8	9.379297e-05
53	0xb770b2da	-1.4346757e-05
54	0xb856fb9b	-5.12559e-05
55	0xb8a300c2	-7.772587e-05
56	0x37a5c290	1.9760133e-05
57	0xb91e6c3b	-0.00015108373
58	0x38224347	3.8686467e-05
59	0xb91c61e4	-0.00014913786
60	0xb68fe7e5	-4.288728e-06
61	0xb8983adb	-7.2588875e-05
62	0xb8aa68d4	-8.1257574e-05
63	0x3965ac56	0.00021903342
64	0x3807cde1	3.2378248e-05
65	0x39bb4d5d	0.0003572506
66	0x399036dd	0.00027506697
67	0x391fac90	0.00015227706
68	0x378d15c6	1.6818649e-05
69	0x38a6c5e9	7.9523605e-05
70	0xb903f5f5	-0.0001258476
71	0x395afd8d	0.00020884555
72	0x38dcf38a	0.0001053578
73	0x39a33a29	0.00031133115
74	0x39a36913	0.0003116807
75	0x38ea4c16	0.000111721616
76	0x39030723	0.00012495792
77	0x38cdbfb2	9.810868e-05
78	0xb9440a61	-0.00018695883
79	0xb79e04fa	-1.8837385e-05
80	0x399a4957	0.0002942781
81	0x38e20fa7	0.00010779435
82	0x39679eac	0.00022088987
83	0xb87a2cc7	-5.9646347e-05
84	0xb842ce02	-4.6445064e-05
85	0xb909a579	-0.00013126982
86	0x39172444	0.00014413992
87	0x38e93f28	0.000111220696
88	0xb8ee1efe	-0.00011354497
89	0xb76fc41a	-1.4291169e-05
90	0xb9981cf6	-0.00029013277
91	0x38208c1e	3.8277467e-05
92	0xb75df5e8	-1.3229881e-05
93	0xb90f0f7a	-0.00013643308
94	0xb7ff27bf	-3.0416877e-05
95	0x39be136a	0.0003625409
96	0xb798629e	-1.8165734e-05
97	0xb984c4c4	-0.00025323604
98	0xb94f2f55	-0.00019758691
99	0xb8dd125d	-0.000105415216
100	0xb6c4c873	-5.8645905e-06
101	0xb852a8e0	-5.022518e-05
102	0x38b15f51	8.457772e-05
103	0xb9190fab	-0.00014597054
104	0xb8a23cb8	-7.736072e-05
105	0xb96e5c21	-0.0002273177
106	0xb9684694	-0.00022151537
107	0xb889e031	-6.574428e-05
108	0xb8ccb26b	-9.760711e-05
109	0xb89c876e	-7.4638854e-05
110	0x391021b0	0.0001374546
111	0x36de59ce	6.62657e-06
112	0xb95c17e2	-0.00020989732
113	0xb87bb384	-6.001025e-05
114	0xb92e9cc6	-0.00016652336
115	0x38076858	3.2283686e-05
116	0x37fd88e6	3.0223699e-05
117	0x38bfb5b8	9.1414375e-05
118	0xb8c7f6ac	-9.535006e-05
119	0xb892884d	-6.9872105e-05
120	0x38a16bfa	7.6971904e-05
121	0x37af8447	2.0923222e-05
122	0x394e562c	0.00019677792
123	0xb784d0cf	-1.583286e-05
124	0x37807cdb	1.531693e-05
125	0x38d2cfd3	0.000100522906
126	0x37f1b3f7	2.8813241e-05
127	0xb988bd6d	-0.00026081075
128	0x38e8d1fa	0.00011101733
129	0x38ed8552	0.000113258735
130	0x382d18a8	4.1269377e-05
131	0x38f46ee6	0.00011655483
132	0x3905a7e7	0.00012746417
133	0x38f501b3	0.00011682827
134	0xb99a4b18	-0.00029429118
135	0x3910efd0	0.00013822247
136	0xb7727e2a	-1.4453699e-05
137	0x382783c1	3.9938608e-05
138	0x38cf90f8	9.897532e-05
139	0x3988f229	0.00026120365
140	0xb8a4add7	-7.8525096e-05
141	0xb8d32c0a	-0.00010069467
142	0xb866e678	-5.5050914e-05
143	0xb91f6378	-0.00015200477
144	0x38d86c48	0.000103198516
145	0x398dd5b7	0.00027052846
146	0xb842549e	-4.633201e-05
147	0xb93cc3ca	-0.00018002014
148	0xb8f60ffb	-0.00011733171
149	0xb8be4d43	-9.074297e-05
150	0x3930150e	0.00016792511
151	0x3938c5c4	0.00017621281
152	0xb8f57c55	-0.00011705669
153	0x391043e1	0.00013758197
154	0xb98ff866	-0.00027460157
155	0x39513c65	0.00019954292
156	0xb7d014ef	-2.480528e-05
157	0xb76533cf	-1.3661526e-05
158	0x3803791b	3.1345622e-05
159	0x388c6356	6.694223e-05
160	0x3780fa2a	1.537528e-05
161	0xb8282229	-4.0086135e-05
162	0xb817964c	-3.614118e-05
163	0xb63dde0f	-2.829245e-06
164	0x37a78d3a	1.9973715e-05
165	0x36d25845	6.2687636e-06
166	0xb824483c	-3.916792e-05
167	0xb6f68b64	-7.3475985e-06
168	0xb78edfcb	-1.703193e-05
169	0xb808c54f	-3.2608685e-05
170	0xb807ad4a	-3.2347896e-05
171	0x37ab9ab2	2.0456824e-05
172	0xb7b732b4	-2.183891e-05
173	0xb80f3954	-3.4147248e-05
174	0x3739864d	1.1058129e-05
175	0xb7cb944a	-2.4268538e-05
176	0xb7ce0cd7	-2.4563093e-05
177	0x379ed9df	1.8936522e-05
178	0xb7f13e9c	-2.8758594e-05
179	0xb78795c1	-1.6162989e-05
180	0xb7a4e4e2	-1.9656905e-05
181	0x36a4278a	4.892184e-06
182	0x367c9814	3.7639447e-06
183	0x36d7f5f1	6.4361307e-06
184	0xb57182ed	-8.997002e-07
185	0x37a033d7	1.9097626e-05
186	0x351570f3	5.567119e-07
187	0x37acc050	2.059355e-05
188	0xb70b35f4	-8.297608e-06
189	0x374d7342	1.2245788e-05
190	0x36e2f271	6.7635488e-06
191	0xb839c2f7	-4.4289012e-05
192	0x37ae081b	2.074619e-05
193	0x3a2cabae	0.00065868616
194	0x3a09d46b	0.0005257788
195	0x3985e3f7	0.00025537584
196	0xb78db8da	-1.6894588e-05
197	0x38e1a8dd	0.00010760289
198	0xb91597f8	-0.0001426636
199	0x39bce35e	0.00036027556
200	0x395feb1f	0.00021354527
201	0x3a1dab41	0.00060145935
202	0x3a16b0dc	0.00057484
203	0x38f2b3a8	0.00011572923
204	0x3992935b	0.00027957078
205	0x39710154	0.00022984046
206	0xb9b8bdd6	-0.00035236654
207	0x37af34cd	2.0886213e-05
208	0x3a0d3b3b	0.0005387549
209	0x38d42c9c	0.00010117257
210	0x39ef9467	0.000456962
211	0xb8407a72	-4.5890403e-05
212	0xb84b1c22	-4.8425172e-05
213	0xb96a79b7	-0.00022361321
214	0x39651aa2	0.00021849063
215	0x391c2669	0.00014891628
216	0xb93b2b90	-0.00017849938
217	0xb8b5f02e	-8.6754895e-05
218	0xb9f43eab	-0.00046585998
219	0xb6650a97	-3.4129823e-06
220	0xb7d7fc27	-2.5747415e-05
221	0xb98aa725	-0.00026445944
222	0xb8a729a1	-7.9709345e-05
223	0x3a34cc1c	0.000689687
224	0xb8c22ae9	-9.2586335e-05
225	0x39ad98fd	0.00033111116
226	0x39a0e582	0.00030688575
227	0x387b34de	5.98923e-05
228	0xb90b57b9	-0.00013288752
229	0xb83c4bab	-4.4893164e-05
230	0x393b725e	0.00017876315
231	0x38eab609	0.00011191896
232	0x391d8134	0.00015020819
233	0x39b9c45d	0.00035432252
234	0x3995882b	0.00028520948
235	0xb92a9a66	-0.00016269981
236	0x3980a549	0.0002453721
237	0x397e09ba	0.00024226951
238	0xb9399187	-0.00017697188
239	0x3922c212	0.00015521821
240	0x398293d5	0.00024905676
241	0xb93ceff9	-0.00018018474
242	0x39ade80f	0.00033170028
243	0x390c595b	0.00013384728
244	0x38b109f9	8.441875e-05
245	0xb886102c	-6.39263e-05
246	0xb735792a	-1.0816651e-05
247	0xb87cfb12	-6.031531e-05
248	0xb74fc2d2	-1.2383522e-05
249	0xb941a8f8	-0.0001846886
250	0xb865974c	-5.473876e-05
251	0xb93b4339	-0.00017858752
252	0x3560504f	8.3563367e-07
253	0xb91f650e	-0.00015201067
254	0xb8bec22f	-9.0960755e-05
255	0x39ce220c	0.0003931675

exp_avg_sq f4 [32, 32]
0	0x36122448	2.1776814e-06
1	0x36d5796e	6.362031e-06
2	0x369d2ddd	4.684304e-06
3	0x36258713	2.466554e-06
4	0x36400561	2.861336e-06
5	0x372c18a5	1.0257737e-05
6	0x36ecdd7a	7.0591313e-06
7	0x36c6561c	5.9108843e-06
8	0x354e0c46	7.675884e-07
9	0x368daff0	4.2226093e-06
10	0x368a15c0	4.1152525e-06
11	0x36c1704b	5.764921e-06
12	0x3673870e	3.6288434e-06
13	0x3644946e	2.9292673e-06
14	0x3655acf6	3.184015e-06
15	0x3654425e	3.1629093e-06
16	0x36973605	4.5064394e-06
17	0x37270130	9.954252e-06
18	0x3682e26b	3.9006604e-06
19	0x3621b8d2	2.409845e-06
20	0x36a8f115	5.034856e-06
21	0x360a18a8	2.0577954e-06
22	0x36ef6f72	7.135729e-06
23	0x36c7f716	5.9594267e-06
24	0x3625b4f5	2.4692247e-06
25	0x36f9cc75	7.44458e-06
26	0x365edf1c	3.3210445e-06
27	0x36b20080	5.3048716e-06
28	0x36d3597b	6.298707e-06
29	0x36a77654	4.990763e-06
30	0x378388ca	1.5680114e-05
31	0x370d6acb	8.42912e-06
32	0x371901a8	9.119896e-06
33	0x37c4aade	2.3444587e-05
34	0x376ec102	1.4230844e-05
35	0x370d7f36	8.4338735e-06
36	0x372ad76f	1.0182949e-05
37	0x37a0fafa	1.9190356e-05
38	0x38555439	5.0861596e-05
39	0x375f1e69	1.3298916e-05
40	0x368f2998	4.2665743e-06
41	0x377cf4f5	1.5077404e-05
42	0x378ccd2b	1.678484e-05
43	0x37101b5e	8.589441e-06
44	0x378342e5	1.5647567e-05
45	0x3769d890	1.3938305e-05
46	0x37bb76b7	2.2347418e-05
47	0x3792987c	1.7475562e-05
48	0x3801d77c	3.0956682e-05
49	0x3786422f	1.6004864e-05
50	0x37988213	1.8180383e-05
51	0x379e928c	1.8903309e-05
52	0x37b9da3e	2.2155346e-05
53	0x36a351dc	4.8673082e-06
54	0x372c175a	1.0257436e-05
55	0x37122f17	8.713242e-06
56	0x366c318c	3.519558e-06
57	0x3719ce3c	9.167528e-06
58	0x37fd9f44	3.0234114e-05
59	0x36e55fcc	6.835884e-06
60	0x37cab396	2.4163903e-05
61	0x37765301	1.46820685e-05
62	0x37f75617	2.9484783e-05
63	0x37b079c7	2.1037542e-05
64	0x36dc5708	6.5666427e-06
65	0x37882271	1.6228501e-05
66	0x37109e0c	8.619867e-06
67	0x36aefade	5.214809e-06
68	0x36e7345b	6.8904315e-06
69	0x3763a496	1.3568575e-05
70	0x37e5ad20	2.7379545e-05
71	0x3717fce4	9.059182e-06
72	0x361ccb3d	2.3364112e-06
73	0x37152b88	8.8912275e-06
74	0x37378652	1.0938924e-05
75	0x36afb59a	5.2365476e-06
76	0x37151d0f	8.887858e-06
77	0x370c92ae	8.378802e-06
78	0x374f730f	1.2364951e-05
79	0x37565fa3	1.2777661e-05
80	0x37b2654b	2.1266422e-05
81	0x3709b610	8.208226e-06
82	0x371a6e99	9.204866e-06
83	0x377fd127	1.52478815e-05
84	0x374a5883	1.20607465e-05
85	0x368d1a95	4.205222e-06
86	0x36ddbb4b	6.608117e-06
87	0x36b13946	5.2816786e-06
88	0x3652787c	3.136257e-06
89	0x36c7a932	5.950359e-06
90	0x37ce1b4e	2.4569828e-05
91	0x3696fe54	4.499956e-06
92	0x373fdab9	1.14354125e-05
93	0x3704729a	7.894496e-06
94	0x37b25968	2.1260887e-05
95	0x37717c64	1.4393681e-05
96	0x364961bf	3.000823e-06
97	0x370bde13	8.336751e-06
98	0x36caec96	6.0476114e-06
99	0x366c28ea	3.5190556e-06
100	0x367a4b37	3.7296684e-06
101	0x37226aea	9.680845e-06
102	0x3727a017	9.9912495e-06
103	0x3703790b	7.836391e-06
104	0x3597b9eb	1.1304486e-06
105	0x36be78a6	5.6764866e-06
106	0x36befa67	5.691592e-06
107	0x36e6a3ff	6.873626e-06
108	0x36aab2ac	5.087195e-06
109	0x3681efd6	3.87242e-06
110	0x36a65632	4.95722e-06
111	0x368cd8ea	4.1975773e-06
112	0x36e6bcd8	6.8765185e-06
113	0x3750ea78	1.2452358e-05
114	0x36bb95ec	5.5904875e-06
115	0x3666624f	3.4329894e-06
116	0x36dfe65c	6.6727353e-06
117	0x36404537	2.8650518e-06
118	0x3727a31c	9.9919525e-06
119	0x37039e07	7.845002e-06
120	0x36369d92	2.7211831e-06
121	0x36e57512	6.8383606e-06
122	0x36a87e6e	5.0215085e-06
123	0x36d34b50	6.2970576e-06
124	0x36ecad1d	7.053501e-06
125	0x36f49b62	7.2898556e-06
126	0x37835a3c	1.5658436e-05
127	0x37249514	9.809872e-06
128	0x36905ea1	4.3025507e-06
129	0x37250a12	9.837111e-06
130	0x370b1194	8.289138e-06
131	0x36b629bb	5.4288807e-06
132	0x36a61683	4.949806e-06
133	0x376041ad	1.3366732e-05
134	0x380e008d	3.385595e-05
135	0x370c4a06	8.361885e-06
136	0x365ee259	3.321233e-06
137	0x373643ed	1.0863861e-05
138	0x3719ed26	9.174726e-06
139	0x37009b3b	7.665537e-06
140	0x37566a45	1.2780137e-05
141	0x36d74a84	6.416174e-06
142	0x3781449e	1.540995e-05
143	0x36f787aa	7.376967e-06
144	0x37d270f3	2.5086547e-05
145	0x3757dbfc	1.2866218e-05
146	0x37881af6	1.6225018e-05
147	0x3783fdc4	1.5734586e-05
148	0x3747f63a	1.1918653e-05
149	0x360f7c91	2.1381168e-06
150	0x370a06fc	8.227067e-06
151	0x36d62f55	6.383207e-06
152	0x35ff8343	1.9037183e-06
153	0x36fd19bc	7.5429834e-06
154	0x37f26e70	2.8900075e-05
155	0x36b3dab3	5.3600756e-06
156	0x379f5e4a	1.8998184e-05
157	0x37398904	1.1058761e-05
158	0x37a8bba8	2.0114545e-05
159	0x3723b81a	9.758422e-06
160	0x358b3da4	1.0374247e-06
161	0x367687bc	3.6735864e-06
162	0x363d773b	2.8232596e-06
163	0x35ac8e5d	1.2856432e-06
164	0x35ae2b73	1.2976656e-06
165	0x36ccb877	6.1011483e-06
166	0x36a464a2	4.899296e-06
167	0x3657f56b	3.2180349e-06
168	0x350b99a1	5.2005095e-07
169	0x364cc8ce	3.0515253e-06
170	0x3612894c	2.1835613e-06
171	0x364f6282	3.0902743e-06
172	0x360e8bf3	2.124111e-06
173	0x35d6911d	1.5986476e-06
174	0x3610d889	2.1583712e-06
175	0x35eb05e5	1.751058e-06
176	0x360ae65e	2.0697694e-06
177	0x36baf551	5.5717906e-06
178	0x3629691e	2.5244149e-06
179	0x35b301d0	1.3337067e-06
180	0x3632d515	2.6648097e-06
181	0x355ad19e	8.151636e-07
182	0x364d17d9	3.0561262e-06
183	0x3647de30	2.978264e-06
184	0x35a19ab0	1.2040455e-06
185	0x36a356e6	4.867895e-06
186	0x35e5cad1	1.7120857e-06
187	0x36383d18	2.7453698e-06
188	0x36914152	4.328941e-06
189	0x3619b766	2.2905529e-06
190	0x371d101e	9.361682e-06
191	0x36d0c0ab	6.2213126e-06
192	0x3791fa9b	1.7402044e-05
193	0x38390aa3	4.4117343e-05
194	0x37eead5f	2.8452543e-05
195	0x378a9863	1.6521843e-05
196	0x37a18ff0	1.9259722e-05
197	0x37fdf3a7	3.027341e-05
198	0x389bd1d0	7.4300566e-05
199	0x38011b3f	3.078137e-05
200	0x36ff1825	7.602403e-06
201	0x37e94bcd	2.7811062e-05
202	0x37f1a854	2.8807823e-05
203	0x37b28a63	2.1283695e-05
204	0x37d5cc99	2.5486852e-05
205	0x37d560f8	2.5436733e-05
206	0x3811d983	3.4773268e-05
207	0x3808674c	3.252113e-05
208	0x3820841f	3.827002e-05
209	0x3823d01e	3.9056053e-05
210	0x37ec2c2c	2.8153961e-05
211	0x37cef945	2.4673189e-05
212	0x38260ea0	3.9591105e-05
213	0x37298fa4	1.0106629e-05
214	0x37e59bd3	2.7371489e-05
215	0x37d32bf6	2.5173631e-05
216	0x36f34ce4	7.2509156e-06
217	0x37917c1e	1.7343144e-05
218	0x38116dd2	3.4672972e-05
219	0x3799b5b7	1.8323639e-05
220	0x38053de4	3.176731e-05
221	0x37e920f3	2.7791108e-05
222	0x383daf83	4.522457e-05
223	0x384a785e	4.8272654e-05
224	0x379a94ce	1.8427523e-05
225	0x38417c13	4.613034e-05
226	0x37d7a0f6	2.570495e-05
227	0x377be832	1.5014828e-05
228	0x37a58489	1.973125e-05
229	0x383eeb8a	4.5518893e-05
230	0x38c31ad1	9.3033195e-05
231	0x37c78cb0	2.3788161e-05
232	0x3700526c	7.648585e-06
233	0x37eb676d	2.8062344e-05
234	0x3807f9c7	3.241913e-05
235	0x37925bdc	1.7447332e-05
236	0x37edc14f	2.8342618e-05
237	0x37d89e41	2.58229e-05
238	0x382b3eb8	4.082799e-05
239	0x3812e4b6	3.5022116e-05
240	0x387104a7	5.746321e-05
241	0x37f9d3be	2.9781713e-05
242	0x3806f4ed	3.2176195e-05
243	0x3818f233	3.646519e-05
244	0x38241f29	3.9129667e-05
245	0x37326314	1.0632695e-05
246	0x3790e055	1.72706e-05
247	0x377720f4	1.473002e-05
248	0x371803aa	9.060759e-06
249	0x37d121a0	2.49304e-05
250	0x386f7899	5.7094356e-05
251	0x376cfd5b	1.4125685e-05
252	0x3846c282	4.7388028e-05
253	0x37d56ac5	2.5441297e-05
254	0x3890fba3	6.913326e-05
255	0x382d762c	4.135647e-05

exp_avg f4 [32]
0	0x3a1a6870	0.0005890196
1	0xb81b19e1	-3.697898e-05
2	0xbab3caa5	-0.0013717009
3	0x3a785ccf	0.0009474279
4	0xba7eea16	-0.00097242126
5	0x3847b456	4.7613248e-05
6	0xbb17d7a2	-0.0023169299
7	0xba1be2f2	-0.0005946598
8	0xba345fe7	-0.00068807456
9	0x3b1acf4d	0.0023622096
10	0x3a23b0bf	0.0006244294
11	0xbaf512b3	-0.0018697589
12	0x3912329f	0.00013942503
13	0x3abf9561	0.0014616662
14	0xbb8f22eb	-0.004368176
15	0x390dc4e5	0.00013520157
16	0x391321a7	0.00014031549
17	0xb9e8963f	-0.0004436243
18	0x39907225	0.00027550865
19	0xbb10ded4	-0.0022105472
20	0x3a832a22	0.0010007063
21	0xb9e4e44d	-0.00043657646
22	0xb9fd766c	-0.00048344152
23	0xb9a1fbfe	-0.00030896062
24	0xbb1e3205	-0.00241387
25	0x390534c1	0.00012703521
26	0xb749b125	-1.2021778e-05
27	0x3ab1f63a	0.001357741
28	0x3ab01145	0.0013432881
29	0x38bbc2e2	8.9531546e-05
30	0x3a8919e5	0.0010459988
31	0x3b28c4c6	0.0025752052

exp_avg_sq f4 [32]
0	0x38ff5331	0.00012174843
1	0x39d3b986	0.00040383282
2	0x3943afc2	0.00018662124
3	0x390553a4	0.00012715027
4	0x39b55c73	0.0003459189
5	0x38d1e067	0.00010007695
6	0x3a20f810	0.000614048
7	0x3a549fed	0.0008110989
8	0x38f12f46	0.00011500581
9	0x39921198	0.00027860398
10	0x3a471802	0.0007594825
11	0x39b582c2	0.00034620432
12	0x398efd84	0.00027273234
13	0x3a94b456	0.0011345248
14	0x3aae7d9f	0.0013312584
15	0x388026c8	6.110739e-05
16	0x3830f285	4.2187534e-05
17	0x3806b041	3.211224e-05
18	0x3655662f	3.1798952e-06
19	0x3a024d38	0.0004970613
20	0x390c5f65	0.00013386978
21	0x37e228ce	2.69603e-05
22	0x38ec98df	0.000112818314
23	0x3983ce74	0.00025140087
24	0x39d0ff87	0.00039863234
25	0x37a67179	1.9841582e-05
26	0x396427c1	0.00021758584
27	0x3a5586f4	0.0008145415
28	0x39086c4d	0.00013010316
29	0x362a757d	2.5400361e-06
30	0x3908f800	0.00013062358
31	0x39ef8f25	0.00045692283

exp_avg f4 [1, 32]
0	0x3b1ac39a	0.0023615123
1	0xbb5d9ba0	-0.0033814684
2	0xbba4101a	-0.0050068023
3	0x3b665e38	0.0035151374
4	0xbb4a5b64	-0.0030877227
5	0x3a10c7db	0.0005522945
6	0xbbc2b4e1	-0.0059419726
7	0xbbc2ed68	-0.005948711
8	0xbab3937c	-0.001370057
9	0x3b89fb8c	0.004210895
10	0xbb9c8fc1	-0.004777879
11	0xbaca7a92	-0.0015447906
12	0xbb86946c	-0.0041070487
13	0x390220d9	0.00012410003
14	0xbb83d95f	-0.0040237154
15	0x3b172cfe	0.002306759
16	0x3b04b8a7	0.0020251663
17	0xbb1ba086	-0.0023746802
18	0x383c3fc8	4.4882094e-05
19	0xbb111a91	-0.002214108
20	0x3b5bb5a0	0.0033525005
21	0xba65a869	-0.0008760752
22	0xba8b3910	-0.0010621864
23	0x3981dae0	0.00024767872
24	0xbb9dbabd	-0.0048135207
25	0x399e3cb6	0.00030181342
26	0x3a7e8847	0.0009709638
27	0x3b149f83	0.0022678084
28	0x3b8ffa31	0.004393839
29	0xb976489c	-0.00023487437
30	0x3bcdc5b4	0.0062796716
31	0x3b90a42a	0.004414101

exp_avg_sq f4 [1, 32]
0	0x3a7d5b00	0.0009664744
1	0x3b06cd72	0.0020569232
2	0x3ae0ed81	0.0017160625
3	0x3a919243	0.0011106211
4	0x3abf6663	0.0014602657
5	0x39a54578	0.0003152301
6	0x3ae72687	0.0017635383
7	0x3b0caa1d	0.00214637
8	0x3a13eb55	0.0005642672
9	0x3aa1381c	0.0012300047
10	0x3ad9d23e	0.0016618443
11	0x3a387bcc	0.000703749
12	0x3aa917fc	0.0012900825
13	0x3a7eecb1	0.0009724601
14	0x3a46289a	0.00075591507
15	0x3a6667d2	0.0008789274
16	0x3a13ec8d	0.0005642854
17	0x39b53587	0.0003456289
18	0x39832298	0.0002501204
19	0x3ac75440	0.0015207604
20	0x3a72c2ed	0.00092606136
21	0x399136a4	0.00027697266
22	0x39b9312e	0.0003532259
23	0x3a1dcd1a	0.0006019637
24	0x3af926a5	0.0019008709
25	0x39cc316a	0.00038946728
26	0x3a2a6ddf	0.00065013574
27	0x3a1815e9	0.0005801605
28	0x3ad65248	0.0016351426
29	0x38402db1	4.581892e-05
30	0x3b13b836	0.0022540218
31	0x3a8248c4	0.0009939899

exp_avg f4 [1, 32]
0	0x3b57bbb8	0.0032918286
1	0xbb9e1ded	-0.004825345
2	0xbb681f80	-0.0035419166
3	0x3b7e4de9	0.0038803762
4	0xbb03bac8	-0.0020100344
5	0x3a8cd1ec	0.0010743714
6	0xbb6ad117	-0.0035830194
7	0xbbb2a220	-0.0054514557
8	0xbacbcf04	-0.0015549366
9	0x3ae225e0	0.0017253719
10	0xbbae2c81	-0.005315364
11	0xb9615dff	-0.00021492688
12	0xbb66c4bd	-0.003521248
13	0xbb4df4a2	-0.003142633
14	0xb8b1c521	-8.476736e-05
15	0x3af63e19	0.0018786817
16	0x3ae43647	0.0017411195
17	0x39c4d07a	0.0003753936
18	0x3a611469	0.000858611
19	0xbac7a417	-0.0015231398
20	0x3a9ce4d7	0.0011970055
21	0xb9b12447	-0.000337871
22	0x39151287	0.0001421665
23	0x3b1efc03	0.0024259097
24	0xbb69d4b7	-0.0035679766
25	0x3a027cf5	0.00049777265
26	0x3b40f85c	0.0029444909
27	0xbb058fc3	-0.0020379878
28	0x3b0c101f	0.0021371914
29	0x3937d519	0.00017531625
30	0x3bb51f59	0.0055274186
31	0x3b66545a	0.0035145492

exp_avg_sq f4 [1, 32]
0	0x3a6052fa	0.00085572863
1	0x3ae1455d	0.001718681
2	0x3aa9428f	0.0012913513
3	0x3aa03022	0.0012221376
4	0x3a7de4ae	0.000968526
5	0x3966f98e	0.00022027476
6	0x3afe373f	0.0019395127
7	0x3b0a732a	0.0021125772
8	0x39b171a9	0.00033844754
9	0x3aae3e2f	0.0013293679
10	0x3ac5d2c9	0.0015092726
11	0x3a24ee43	0.0006291607
12	0x3a86f5f0	0.0010296684
13	0x3a2e3c6a	0.00066465756
14	0x3a64fe35	0.00087353896
15	0x3a34b8eb	0.000689401
16	0x39ed366f	0.0004524472
17	0x393b7d60	0.00017880416
18	0x38c010d5	9.158409e-05
19	0x3a9e6e84	0.001208738
20	0x3a208cf2	0.0006124518
21	0x38a841ac	8.0230966e-05
22	0x3939d829	0.00017723501
23	0x398a8e38	0.00026427372
24	0x3b01e759	0.0019821732
25	0x394036c3	0.00018330947
26	0x39d68784	0.00040918228
27	0x39efe733	0.0004575789
28	0x3ab0f532	0.0013500808
29	0x373787fe	1.0939313e-05
30	0x3b366553	0.002783139
31	0x3aa5d7c1	0.0012652801
